model.pth (torch, 17216 bytes, 4 tensors)

linear1.weight f4 [256, 11]
000000 98 a4 30 3e e2 43 c9 bd 16 85 03 3e 66 ac 8a 3c
       0.17250288 -0.09827401 0.12843737 0.01692791
000010 cd ef ab be 2e d7 7c 3d bc bb b6 be fd b8 9f 3e
       -0.3358139 0.06172865 -0.35690105 0.31195822
000020 03 5a 12 3f 28 03 86 3e 88 57 1a 3f 6f db 88 3e
       0.57168597 0.26174283 0.6028981 0.26729915
000030 db ff a4 3e df 12 dd bc b7 ec 85 be 74 66 5e 3e
       0.32226452 -0.026986538 -0.26157162 0.2171877
000040 30 c5 17 3f 85 c0 8e be fe a5 e4 3e c1 b4 8c bd
       0.5928526 -0.27881256 0.44657892 -0.068704136
000050 98 66 03 bf 8a c1 d2 3e fc 46 26 be 92 77 07 3e
       -0.5132842 0.41163284 -0.16238016 0.13229206
000060 3e 45 db bd d1 7d df 3e 96 b7 e2 3e 8c a0 c3 be
       -0.10706566 0.43650678 0.4428069 -0.38208425
000070 03 a5 73 bf 35 49 09 3f 1a 34 59 3e db 0b 28 bf
       -0.9517366 0.5362733 0.21211281 -0.6564309
000080 31 86 40 bf d5 2d 9d 3e 68 80 94 3e d5 b5 f3 bb
       -0.7520476 0.3069903 0.29004216 -0.0074374476
000090 05 de d2 3e 82 89 de be f3 de 95 be c5 19 4e 3f
       0.41185012 -0.43464285 -0.2927166 0.8050807
0000a0 c5 c9 48 be e7 7d 23 3f 16 35 04 3f 95 7f 09 bf
       -0.19608219 0.63863987 0.516435 -0.537103
0000b0 82 0f 3a be f7 70 55 be 91 00 19 be 33 b5 0c 3c
       -0.18169978 -0.20843874 -0.14941622 0.008588123
0000c0 2d e1 d1 be 7d 6c ab bb 91 1a ae bc 77 13 d9 3b
       -0.40992108 -0.0052314387 -0.021252902 0.006624635
0000d0 1c be 7a 3e 8a a6 11 bd c8 b4 fe bd 1e c1 c5 be
       0.24486583 -0.035559215 -0.12436825 -0.386239
0000e0 c6 cd 9a be a0 eb c9 bd 1e 27 04 be dd 2e 88 3c
       -0.30235118 -0.09859395 -0.12905547 0.016623909
0000f0 1d 91 78 be 1c 26 94 3e 76 3f ad 3e 48 f1 bb 3d
       -0.24274106 0.28935325 0.3383748 0.0917688
000100 17 11 03 bf 55 9a e4 be a4 d7 a4 be 4e 4d d5 3c
       -0.5119795 -0.44648996 -0.3219577 0.026037838
000110 9d ea 6e be 55 56 ef 3e bb a8 eb be 9f eb b2 3e
       -0.23331685 0.46745554 -0.4602717 0.3494539
000120 29 40 da be 55 6e b2 be 63 53 3f bf 2d 44 a5 be
       -0.42627075 -0.34849802 -0.74736613 -0.32278576
000130 f5 7f 1f 3f 7e fb af be 8d c4 91 be 9a ac 72 be
       0.6230462 -0.3437156 -0.2847027 -0.23698655
000140 32 d6 ae bd f1 ef 75 bd a8 4c 1f bb 65 39 7c be
       -0.08536948 -0.06004328 -0.0024307165 -0.2463127
000150 45 5c 8f be 2a a7 87 be a2 b9 ba be a3 3a b0 be
       -0.28000084 -0.26494724 -0.36469752 -0.34419736
000160 2e 0c 8d bb 66 aa a1 3e 1f f5 b5 3d 66 bb b5 3e
       -0.0043044304 0.31575316 0.08884644 0.35494536
000170 b3 5a 46 be e7 e4 f4 3d 05 f8 1e bf 06 da 80 3e
       -0.19370537 0.11957722 -0.620972 0.2516634
000180 44 43 d9 be 36 9b 29 bf f7 d6 f5 be 97 87 8c be
       -0.42434132 -0.6625246 -0.48015568 -0.27447197
000190 dc 19 29 3e 49 fa 3d be 60 16 69 be 44 ab 53 3e
       0.16513771 -0.18552507 -0.22762442 0.20670801
0001a0 c3 8f fd 3c 7d 1a 34 bf ac 47 ab 3e 3e 5e ae be
       0.03095234 -0.7035292 0.3345312 -0.34056276
0001b0 af b9 64 bd a8 07 48 bf be eb 5f be d4 2e 84 be
       -0.055841144 -0.7813668 -0.21867272 -0.25816977
0001c0 64 da 6b 3c 51 81 2e be 8d c1 22 be 10 ba cf be
       0.01439533 -0.17041518 -0.15894146 -0.40571642
0001d0 4f 7b 5f be 4e 99 a5 bc 3d e8 b2 bd 2b d5 08 bf
       -0.21824382 -0.020214703 -0.08735702 -0.5345027
0001e0 99 21 10 bf 9e 1b 37 bf ec 82 93 bd 94 54 1d 3f
       -0.56301266 -0.71526515 -0.07202706 0.6145718
0001f0 10 05 43 bf 50 78 21 bc 47 80 43 bf 0b 4f f7 bd
       -0.761796 -0.009855345 -0.7636761 -0.12075623
000200 90 d9 76 3d cf 34 16 bf 87 eb 5f 3e 9f 99 e8 be
       0.060266078 -0.5867433 0.2186719 -0.45429704
000210 00 87 0d bf 7d e9 a1 bd 60 3a 93 3e 73 4c 32 3e
       -0.5528412 -0.079058625 0.28755474 0.17411976
000220 d7 4e a0 3e d7 d2 80 3e 6c 3c 52 3e d4 b5 9a be
       0.3131015 0.25160858 0.20530862 -0.3021685
000230 69 77 89 be 83 77 ac be d6 1f d8 be 18 9b 05 3f
       -0.26848915 -0.3368493 -0.4221179 0.5218978
000240 1a 25 cc 3e 8b f5 1a bd 75 a1 9a be ea da e6 3d
       0.39872056 -0.037831824 -0.30201307 0.11272223
000250 5b e5 cf be f1 e1 75 bd 7c 5d ff be a3 91 99 be
       -0.40604672 -0.060029928 -0.4987601 -0.29993924
000260 e0 f4 a2 3d 73 aa db be b0 5b 96 3d 54 0a 50 3e
       0.079568624 -0.4290348 0.07341707 0.2031644
000270 5c c9 ac bd 48 80 a9 be b2 a2 4b bd 9e 7e d0 be
       -0.08436844 -0.33105683 -0.049715705 -0.407216
000280 cc e3 3e be 06 92 26 bd a3 79 b5 bd 81 b7 b3 3d
       -0.18641585 -0.040666603 -0.08861091 0.08775235
000290 e6 c6 7b be d3 b2 7e be 71 1d 50 be b1 50 1a bf
       -0.24587592 -0.24872904 -0.20323731 -0.60279375
0002a0 f4 3e 32 3f 2a ac 08 be 00 eb 06 be c2 00 45 be
       0.6962731 -0.13346925 -0.13175583 -0.1923857
0002b0 c5 4b dd be 46 2a ca 3e 9a 7a 2d be 04 20 0b bf
       -0.4322187 0.39485377 -0.169413 -0.54345727
0002c0 16 a7 15 bf 8a 79 cb be fc f7 15 bf e5 cc 9a be
       -0.5845808 -0.39741164 -0.5858152 -0.30234447
0002d0 aa 28 47 be de 5a 45 be 56 02 1f 3f 9e 54 80 3e
       -0.19449106 -0.19272944 0.6211294 0.25064558
0002e0 06 7d 2d bf bc 5d 9f 3d ce ed 42 bf a2 6c 68 be
       -0.67768896 0.0778155 -0.7614411 -0.2269769
0002f0 8c ce 35 be ef e1 98 be 4e b9 e0 bd 2d eb fa 3c
       -0.17754573 -0.29859874 -0.10972844 0.030629719
000300 38 74 94 be df d1 60 bd c3 34 00 be 18 d5 cb 3d
       -0.28994918 -0.05488765 -0.12520127 0.09952754
000310 bf 8e 83 be d4 82 51 be b7 33 e9 3e 7d c0 c7 be
       -0.25694844 -0.20460063 0.45547268 -0.39014044
000320 9f 9d 02 be da 61 c5 3d 03 93 7e 3e bc 23 1e be
       -0.1275544 0.09637804 0.24860768 -0.15443319
000330 f3 90 e5 bd b9 1a 2c be 93 6a 9b be ce 7d 9f 3e
       -0.112092875 -0.16807069 -0.30354747 0.3115067
000340 ff 19 f2 3e 7c 5b ac be 75 89 66 be 08 61 8f bf
       0.47285458 -0.33663547 -0.22513373 -1.1201487
000350 62 ab f4 3e ad 00 66 bf 55 d1 c9 be 4a 76 dc 3e
       0.47787005 -0.8984478 -0.3941752 0.43058997
000360 69 8d 99 3e 20 6b 83 bf 2a 66 85 bf 58 54 5c be
       0.299907 -1.0267067 -1.0421803 -0.2151655
000370 cf 78 01 3f 81 26 ae 3d be 6e ce 3b cc 17 76 3e
       0.50574964 0.08503438 0.0062998226 0.24032515
000380 96 d9 43 3e 57 a7 15 bf 2c 69 d4 bd 4a cd 2d bf
       0.19125971 -0.58458465 -0.103716224 -0.6789137
000390 b4 e9 41 bf 1d 50 9a 3e af ba c6 bc 34 60 a2 3e
       -0.7574723 0.30139247 -0.02425894 0.31714022
0003a0 ba f4 16 3e e6 80 e7 bc 6c a6 17 3e cd ff ba be
       0.14741793 -0.028259706 0.14809579 -0.36523286
0003b0 06 14 8b 3d b0 0a 0b be 66 d8 71 3d eb 8d 87 3e
       0.067909285 -0.13578296 0.059044264 0.26475462
0003c0 9d d9 10 be 7c 16 66 3d 14 43 81 bd 50 08 66 3e
       -0.14145513 0.056173787 -0.06311622 0.22464108
0003d0 db ec da 3d 19 e9 e4 3c 92 f4 f2 be f3 3a 44 bf
       0.10689708 0.02794318 -0.47452217 -0.7665245
0003e0 b4 c5 ae 3e 6e 0d 70 bf 28 b3 21 be 98 de 45 bf
       0.3413521 -0.9377049 -0.15790999 -0.77292776
0003f0 08 b2 9b 3e 0a a8 38 3d bb d8 9a be e9 9c 73 3d
       0.30409265 0.04508213 -0.30243477 0.059475813

linear1.bias f4 [256]
000000 83 38 c3 be 55 32 4c be 02 7f 9b 3e 73 4a 60 be
       -0.38129053 -0.19941075 0.30370337 -0.219034
000010 cb 69 83 be 20 87 e1 be 66 69 89 bd a2 8a 4f 3e
       -0.2566665 -0.44048405 -0.06709556 0.20267728
000020 72 f0 42 be 0a 0f 45 3e bf 09 e2 3d 72 62 8a be
       -0.19037035 0.19244018 0.11037015 -0.27028233
000030 0a e7 2b 3f 44 a3 39 bd 0e 36 88 be 14 1d 95 be
       0.6714941 -0.045321718 -0.2660374 -0.29123747
000040 24 22 10 be ee ca 24 be 8a 88 e2 be a3 0d 09 3f
       -0.14075524 -0.16093037 -0.44244796 0.53536433
000050 11 1a ae 3b 5a 2e 16 bf 7e 05 85 3d f6 c4 8d be
       0.005313166 -0.58664477 0.06495188 -0.27689332
000060 d1 c4 d6 be 3a e2 b9 3d 94 54 b6 3d ca ae f2 bd
       -0.41947034 0.090763524 0.08902851 -0.118497446
000070 0c ab 63 be e8 0a ca bd 2a 22 8d 3d 74 70 f6 be
       -0.22233218 -0.098653615 0.06891282 -0.4813267
000080 2f 60 39 be 19 77 91 bd 50 f1 4e 3d 8a 3b 25 be
       -0.18103097 -0.07102794 0.050523102 -0.16135994
000090 09 2a d5 3e c8 f0 83 be 46 4c 19 bf 46 55 e7 ba
       0.41633633 -0.2576964 -0.5988201 -0.0017649315
0000a0 8a 4a 02 bf 83 cb 24 3d ed 0a b6 be 55 05 6e be
       -0.5089499 0.040233146 -0.3555521 -0.23244222
0000b0 5d 4e 55 be 2a bf 6e be 93 90 41 bf c3 2c c6 be
       -0.20830674 -0.23315111 -0.7561123 -0.38706025
0000c0 29 f9 8f be 0c 3f c9 be 70 c2 0b bf 9d d4 e8 be
       -0.28119782 -0.39305913 -0.54593563 -0.4547471
0000d0 b7 c1 e0 be 1e c8 59 be e9 12 20 bf 89 9e e7 be
       -0.43897793 -0.21267745 -0.62528855 -0.4523814
0000e0 ef 0b 14 bf 84 8d 56 be 25 a5 cc be d5 ff e9 bd
       -0.5783071 -0.20952421 -0.39969745 -0.11425749
0000f0 87 c2 88 be af 4d 7b be 17 d8 06 be 18 24 b2 be
       -0.26710913 -0.24541353 -0.13168369 -0.34793162
000100 a7 89 41 bc f6 4b 39 be 94 f4 03 bf 0b 58 89 be
       -0.011812604 -0.18095383 -0.5154507 -0.26824984
000110 d3 4c 5b bc 9f d7 fe 3b 6b b3 a6 be 4f 12 03 bf
       -0.013385016 0.007777169 -0.3255876 -0.5119981
000120 58 fc 6c 3e 64 4b c4 3d a0 fe 12 3c 5b e0 d8 be
       0.23143137 0.09584692 0.00897184 -0.4235867
000130 dc fe 9a be 50 ff c3 be 66 52 7a be b8 bb 56 bf
       -0.30272567 -0.38280725 -0.24445495 -0.83880186
000140 b7 8a 7c be c1 54 6f bd 1f 12 c4 be f6 20 ce be
       -0.2466229 -0.058430437 -0.38295075 -0.40259522
000150 ca 83 86 be 9b 54 62 3e a2 80 aa be 52 46 8a 3e
       -0.26272422 0.22102587 -0.33301264 0.27006775
000160 de c8 94 be 41 2b 96 be f2 c7 5a 3e 07 8b 90 3e
       -0.290595 -0.29329875 0.21365336 0.2823107
000170 65 ec ba be 15 ea a5 be 67 2a 8c be 86 cf 3c be
       -0.3650848 -0.32405153 -0.273761 -0.18438539
000180 77 f1 ab be 42 7f 69 be 42 5b dd be d4 b5 18 be
       -0.3358266 -0.22802451 -0.43233687 -0.14913112
000190 23 86 97 be 9f 73 e3 be d1 02 e7 be 5a 46 d0 be
       -0.29594526 -0.4442415 -0.45119336 -0.40678674
0001a0 9c ed 79 bd fd af 49 be cc b4 05 bf 3a 7d 0c 3e
       -0.061017618 -0.1969604 -0.52229 0.13719645
0001b0 6d 4a 7f be 4a c0 3b 3e 48 d1 68 bd 9c 11 b5 be
       -0.24930735 0.18335071 -0.05684021 -0.35364997
0001c0 e4 8e df 3c 71 c4 05 bf 69 df 0c bf 34 41 23 3b
       0.027289815 -0.5225287 -0.55028397 0.002491069
0001d0 87 6c 27 bf ee d8 d3 be ce 4a e1 be d0 c9 0e 3c
       -0.65399975 -0.41376442 -0.44002384 0.008715108
0001e0 f2 b1 8f be b0 1d 84 be 8e ba a3 3f 9d f6 1b bf
       -0.2806545 -0.258039 1.2791307 -0.60923177
0001f0 9a f7 08 3d a3 d0 c1 be 0d 9a bc 3e de 0e c1 be
       0.033439256 -0.3785449 0.3683628 -0.37706655
000200 2b 43 25 3e 03 47 c8 bd bd ff 1c be de c6 06 bf
       0.16138904 -0.097791694 -0.15331931 -0.526472
000210 c2 e6 5d be eb 61 1a bf 7e d8 63 3e 1c b0 3d be
       -0.21670058 -0.6030566 0.22250554 -0.18524212
000220 89 38 3c 3e 9b c3 42 be 4d 13 06 3e 9d ff 96 be
       0.18380941 -0.1901993 0.130933 -0.29491892
000230 88 58 77 be 49 aa b6 be 88 d9 c5 be f1 74 b7 3e
       -0.24154866 -0.35676792 -0.38642526 0.35831407
000240 cc 1d ff bd 1f db f9 3e 40 b5 05 bf f7 21 5c be
       -0.12456855 0.4879999 -0.5222969 -0.21497332
000250 49 75 b1 be 1b c4 f9 be 60 a8 0b bf c4 7c 95 3e
       -0.34659794 -0.4878243 -0.54553795 0.2919675
000260 4a fb af bb ad 87 b1 bd 8c ba 97 be d5 2a b0 be
       -0.005370532 -0.08668456 -0.2963451 -0.34407678
000270 c2 4e d5 be 16 4c 8f be 35 3d ef bd 68 96 c0 be
       -0.4166165 -0.27987736 -0.11681596 -0.3761475
000280 21 1c c8 bd ae f4 bf be 9f 8b df be 2c d8 f5 3d
       -0.0977099 -0.37491363 -0.4366121 0.12004122
000290 70 08 7b be 35 57 97 3c 37 78 75 bd 7b 8a bc be
       -0.24514937 0.0184742 -0.0599291 -0.36824402
0002a0 41 62 2d 3e 99 3a 8b bd bc 4d a2 be 15 84 9b be
       0.16932012 -0.06798286 -0.31699932 -0.30374208
0002b0 f1 6b 09 bf a8 ff fa 3e 84 9f 82 3e 60 6e 38 3e
       -0.5368033 0.49023175 0.25512326 0.18010855
0002c0 62 98 f6 3b 47 96 0c bf 25 9a ec 3c 83 78 d0 be
       0.0075254897 -0.54916805 0.028882096 -0.40716943
0002d0 84 7c c3 be db d3 92 3c 1b eb 09 bf 0e 22 8a bd
       -0.38180935 0.017923286 -0.5387437 -0.06744777
0002e0 c9 06 3c 3e b4 da be be 84 4b 66 be 29 36 75 be
       0.18361963 -0.37276232 -0.22489744 -0.23946442
0002f0 6f 2e 5f 3e 3c fa 23 bf 01 43 ad be 5d 35 e7 be
       0.21795057 -0.640537 -0.33840182 -0.451579
000300 d5 30 1d bf f7 eb dd 3e 12 6f 8b be de 7b 79 bd
       -0.61402637 0.4334409 -0.27233177 -0.060909145
000310 a2 05 ed be 55 88 08 3f 96 c2 9b be 8a f2 88 be
       -0.4629336 0.53333026 -0.30421895 -0.26747543
000320 5f 1f 20 bf 7b 71 a4 be 6c c4 91 be 70 d2 f8 be
       -0.6254787 -0.3211783 -0.2847017 -0.4859805
000330 37 96 06 bf 07 33 16 3e 52 fb 0a 3e 2c bc 03 bf
       -0.5257296 0.14667903 0.13572434 -0.51459
000340 7d df 1b bd ae 68 c0 be c5 09 44 3c c5 ec d3 3e
       -0.038054932 -0.37579864 0.01196522 0.41391578
000350 54 7c 1e bf 24 9e 1b be ea ac a1 be df fb d0 be
       -0.6190846 -0.15197045 -0.31577235 -0.40817162
000360 29 2d f9 bd 62 36 98 be 56 f0 53 be 12 87 42 be
       -0.12166817 -0.2972899 -0.2069715 -0.18996838
000370 fe 5e e1 3d 4e 71 f6 3e ed b3 91 bb 5e 1e a5 bd
       0.110044464 0.4813332 -0.0044464977 -0.08062433
000380 3e 41 fd bd 63 75 08 bf 38 ce 26 3d c5 89 4e be
       -0.123659596 -0.5330412 0.04072401 -0.20169742
000390 00 89 1b 3e 64 17 bb bd 6d c8 8a 3e 84 a2 dc be
       0.1518898 -0.09135321 0.27106038 -0.4309274
0003a0 e6 fc ac 3d e7 73 1b bf b8 62 8e bd 6c ae 33 be
       0.08446674 -0.6072373 -0.06952423 -0.17547005
0003b0 0e 1f 2a be fb 2d 0d bf d3 a8 93 bd b5 a8 0a bf
       -0.16613409 -0.55148286 -0.07209935 -0.54163677
0003c0 5a 01 98 be 5f ca 26 bf 04 3d 0e 3f 3c b0 c8 bc
       -0.2968853 -0.65152544 0.5556185 -0.024498098
0003d0 c4 43 65 be 48 f5 33 be 82 a8 27 bb c1 73 82 be
       -0.22389132 -0.17574036 -0.0025582616 -0.25478938
0003e0 f3 1c b1 be df 72 ee be f5 75 a8 be d4 d9 8b be
       -0.345924 -0.46572015 -0.32902494 -0.27314627
0003f0 d9 30 e5 bc 6a 5a b1 be d2 4b ac be 44 56 9a bd
       -0.027977394 -0.34639293 -0.33651596 -0.07535985

linear2.weight f4 [3, 256]
000000 3c 74 d3 bd 3b 55 92 be 88 42 05 3f fc 76 3d bf
       -0.10324904 -0.2858065 0.52054644 -0.7400968
000010 a2 53 86 3b 48 cd 86 40 ea f5 10 bf 0d a2 40 3e
       0.0040993253 4.2125587 -0.56625235 0.18811817
000020 ae 11 0f 3e c9 d2 5a 3d 00 fb 60 bc dc ad 89 3e
       0.13971588 0.053423677 -0.013731718 0.26890457
000030 13 9a 86 3e 66 96 cb bd c3 6f 05 3e e5 0b 56 be
       0.26289424 -0.099407956 0.13030915 -0.20902975
000040 e0 4a e5 bd 89 ab 32 bd 27 ed 39 40 3f a4 06 3f
       -0.11195922 -0.04362062 2.9050996 0.5259437
000050 ea f1 9d be a0 93 1d 40 d9 09 d1 3e aa 66 40 bb
       -0.30848628 2.4621353 0.40827826 -0.0029358068
000060 90 6b ab bb 88 79 81 3d 34 3d 86 be 37 24 93 be
       -0.0052313283 0.06322008 -0.2621857 -0.28738567
000070 c5 42 17 3d c6 7b fa be 39 ac 5f 3e f7 14 0b 3b
       0.03692891 -0.48922557 0.21843041 0.0021222213
000080 12 e0 0c be 0a d7 c3 be fe b6 c0 3c 98 e6 d0 bd
       -0.13757351 -0.3825 0.023524757 -0.10200232
000090 30 7e 88 3e 1a 2e 04 bc 60 6b bb bd 6f 80 9a 39
       0.26658773 -0.008067632 -0.091513395 0.0002946886
0000a0 27 8e d9 3e bb 48 0a bf c0 1f 19 bd 30 39 f3 bc
       0.42491266 -0.5401723 -0.037383795 -0.029690355
0000b0 3d b5 0f bf ac 8b 0b bf d9 15 1c bd 51 6d c8 3b
       -0.5613592 -0.5451 -0.038106773 0.006116547
0000c0 79 84 84 be 2c bf 22 be c4 97 2c 40 29 d2 39 be
       -0.2588232 -0.15893239 2.696763 -0.18146576
0000d0 54 59 7b 3f 4f 0e 8a 3b a8 df 83 3b 3d 02 39 be
       0.9818318 0.0042131315 0.0040244646 -0.1806726
0000e0 71 d7 98 3b 7b 14 98 3d eb 1e f4 3f 8e 9b 32 3f
       0.0046643545 0.07425781 1.9071935 0.6976861
0000f0 ca e6 ac 3c 70 49 bf 3d c9 3f 9f bc d4 46 ce 3e
       0.021106143 0.09340179 -0.019439595 0.40288413
000100 36 c1 96 be ec ab a3 3c 5f 24 a8 3f e6 ae 80 be
       -0.29444283 0.01997944 1.31361 -0.25133437
000110 97 8f bd 3e a7 b1 a4 3b e5 be 54 3c 0e 47 aa bd
       0.37023613 0.0050260606 0.012984966 -0.08314334
000120 db 9a d2 bd 75 2c 03 3f 31 5f 4e 3e cd 26 e4 bd
       -0.102834426 0.5123971 0.201535 -0.11140213
000130 85 2c fc bc 65 b5 9b 3e ee 54 86 bd ac 98 20 3f
       -0.030782947 0.3041183 -0.06559168 0.6273296
000140 87 e5 33 be 2f 79 d4 be 20 48 cc 3f dc 6d b9 3f
       -0.17568026 -0.41498706 1.5959511 1.4486651
000150 ba 85 cd 39 8a be 3c 3c 4e fd 09 bf 9c 83 f9 3e
       0.0003920028 0.011520037 -0.5390214 0.48733222
000160 58 83 a6 be c3 0b 56 bd 6e 68 4e 3e 10 67 ce 3e
       -0.32522082 -0.05225731 0.20157024 0.40313005
000170 46 64 a7 3d 9d 73 5e be 3f d1 df be ec 64 95 39
       0.081734225 -0.2172379 -0.4371433 0.00028494687
000180 f4 e3 34 bc 58 8a c8 3d 13 33 20 be 2a c6 8c 40
       -0.011040676 0.09792012 -0.15644483 4.39919
000190 83 e0 c8 bc 79 00 96 3f ec 62 75 bd dd 29 75 bd
       -0.024521118 1.1718894 -0.059908792 -0.059854377
0001a0 fd e1 4d bd a4 b7 24 be 75 0b 61 3e 41 75 db 3e
       -0.050264347 -0.16085678 0.21977027 0.42862895
0001b0 bf 01 84 bd 9e 89 7e 3e b5 6a b5 3f 76 04 e1 bd
       -0.064456455 0.24857184 1.4173189 -0.10987179
0001c0 82 03 01 bd f9 22 c6 3e fe 70 26 bd 38 cb a1 3e
       -0.031497486 0.38698557 -0.0406351 0.31600356
0001d0 c9 a3 28 40 61 4f 12 bf 4f 15 35 3e 28 25 d5 3e
       2.6349967 -0.5715237 0.1768391 0.4162991
0001e0 8d 3f 5e bd 56 95 6e bd b5 f1 f5 3e 91 4a 7a 3c
       -0.054259825 -0.058247887 0.4803597 0.015276567
0001f0 6f 16 4b bb 11 c4 c9 3c 60 ef 6d 3d 66 3f ad 3c
       -0.0030988713 0.024629625 0.058089614 0.021148395
000200 bf 6a 4f 3e 05 31 80 3c 10 7a 93 3d 7d 48 a1 3e
       0.20255564 0.015648374 0.07201016 0.31500617
000210 7d c1 6d be 8d 3c 72 3e 69 40 c1 3e e3 41 a1 3f
       -0.23218341 0.23655911 0.37744454 1.2598232
000220 2e e2 79 3e df f9 3d be 99 14 f9 3e 86 9a 73 3c
       0.24402687 -0.1855235 0.48648527 0.014868384
000230 37 44 b6 bb 27 90 7e 3d 58 a7 cd 3b 5e 2b c8 3e
       -0.005562331 0.062149193 0.0062760524 0.39095587
000240 a6 cc d1 be 7b cb 0e 3f 75 83 dc 3e 12 bb 6f 3d
       -0.40976447 0.55779237 0.43069044 0.058528014
000250 fc ec 0a be 36 dc 7a 40 56 99 9e be a3 af fd 3e
       -0.13566965 3.9196906 -0.3097636 0.49548063
000260 ac ed cc 3d ce 5f 69 3d 55 a2 48 3d ed 2a 01 3d
       0.1000627 0.056976132 0.048982937 0.031535078
000270 aa 67 fd 3b e6 56 a7 3f 62 d9 12 be eb 2e a1 bd
       0.007733305 1.3073394 -0.14340737 -0.07870277
000280 94 99 47 3e ea 51 10 bb 3e 44 4e 3e 59 ce 92 3e
       0.19492179 -0.002202148 0.2014322 0.28673056
000290 17 4a 36 3c 34 92 ae 3a b2 d2 56 3e 8d 62 d4 ba
       0.011126063 0.0013318718 0.20978811 -0.0016203687
0002a0 78 ab 87 be 60 40 08 bf e1 57 08 be a5 7c 46 be
       -0.26498008 -0.5322323 -0.13314773 -0.19383486
0002b0 52 66 c6 bb 20 13 b1 3e 28 1b 87 bb c4 44 e6 3c
       -0.006054678 0.34584904 -0.0041231103 0.028108962
0002c0 0b 70 98 40 06 b4 1c 3d 6c 6e b9 be bd e2 b3 3b
       4.763677 0.03825762 -0.36217058 0.005489676
0002d0 7d ad 7a 3c 95 15 8b 3e 7d 2a 97 bd df 20 32 3f
       0.015300152 0.27164903 -0.07381151 0.6958141
0002e0 9a 5a 82 3d 11 14 77 be 90 f3 34 3e 02 f8 ba be
       0.06364937 -0.24128748 0.17671037 -0.3651734
0002f0 06 f9 aa 3e cf e6 c5 3d f4 b5 a8 bc 71 d9 14 40
       0.33393115 0.09663164 -0.020594575 2.3257716
000300 a7 30 76 3b 90 bb 0e 3e ad 1b 68 be a6 86 84 3c
       0.003756562 0.13938737 -0.22666807 0.016177487
000310 e1 a1 8c bc d8 9c 27 3f d1 0c f5 bc e8 7e 2e 3c
       -0.017167034 0.654737 -0.029913338 0.010650374
000320 55 2d f9 3b 03 39 f3 bd 70 5f 6f be 36 3e e5 bd
       0.007604281 -0.118761085 -0.2337625 -0.111935064
000330 f5 a7 87 3c f2 c9 13 bf 0f f7 1b 3f 7f ff 58 3e
       0.01655958 -0.5773002 0.60923856 0.21191214
000340 29 48 e7 bd 2c c3 00 be 29 1c ba 3f e9 ad c3 3e
       -0.1129306 -0.12574452 1.4539844 0.3821862
000350 11 8d 67 be 8c f7 8d 3b f3 68 34 be a0 98 a3 bc
       -0.22612406 0.0043324884 -0.1761816 -0.019970238
000360 ae 06 24 bc 46 b3 3c be 9b e6 bf 3d f0 2d 90 3d
       -0.010011358 -0.18427762 0.093701564 0.07040012
000370 ec 57 75 3e c8 77 80 3b e6 7a f6 bc ab 3f f1 be
       0.23959321 0.003920529 -0.0300879 -0.47118887
000380 6d bf 7d bd a3 29 c5 3d fa 3d 21 3f f4 70 55 be
       -0.061950136 0.09627082 0.62985194 -0.2084387
000390 25 2f af 3e ee d0 1d be 56 98 ac 3e e8 90 a5 be
       0.34215656 -0.15411732 0.33709973 -0.32337117
0003a0 bf 13 e8 3e 6b 0f 49 40 3b c2 8f bc a9 7a 6e 3e
       0.45327565 3.141566 -0.017548671 0.23288979
0003b0 50 8c 02 3e d7 af 62 3d 0d 16 ca 3d fb a2 df 3d
       0.12748837 0.055343475 0.09867487 0.10919758
0003c0 47 3c f8 bc 40 3f be 3d 06 89 07 3f 64 42 6f be
       -0.03030218 0.09289408 0.52943456 -0.2336517
0003d0 12 be a5 be e8 d5 fd be 23 4f 9a be 6e 06 0f bf
       -0.32371575 -0.4957726 -0.30138502 -0.55869186
0003e0 77 27 0f 3b d5 e6 4a 40 3c ed 81 3d 1d 0f 63 3e
       0.0021843591 3.1703389 0.06344077 0.22173734
0003f0 12 a0 a8 3f 0e 70 9b bc 1a d2 ad be ac 09 95 3e
       1.317385 -0.01897433 -0.33949357 0.29108942

linear2.bias f4 [3]
000000 80 f5 11 3f a0 7c ab bd a8 11 aa bd
       0.5701523 -0.0837338 -0.08304149
