model.pth (torch, 17216 bytes, 4 tensors)

linear1.weight f4 [256, 11]
-0.45634925 0.13064042 -0.122891724 -0.13385043 0.37205398 -0.3957734 -0.14657025 -0.015183498
-0.5538135 0.34256253 -0.118913405 -0.313069 0.25284734 0.30561545 0.27484846 0.1303348
0.21044946 -0.011596167 -0.19860397 0.06704758 0.02355725 0.12485418 0.2784349 0.35628495
0.31276712 0.15236495 -0.13816558 -0.02491704 0.13215616 0.2970663 0.23586693 0.10533758
0.10182573 0.11079133 0.06784856 -0.30833328 0.1840244 -0.20496778 -0.17559248 0.037045136
0.1669003 0.19770952 -0.47417024 -0.42653742 -0.38279873 0.16067424 -0.5346859 0.034845866
0.1129597 0.14083758 0.16553327 0.28065017 0.26506963 0.15836868 -0.022100097 -0.58100325
0.5134992 0.1378094 -0.27974764 0.11040633 -0.10003159 0.12681204 -0.20402859 0.17181243
0.3475145 0.13970372 -0.24409825 -0.14627029 -0.40817863 -0.12167891 0.21521622 0.20329206
-0.3053198 0.2377223 -0.06023366 0.08183029 0.00552264 0.44761908 0.22509755 -0.16798733
-0.48732546 0.09091271 -0.046305235 0.012120737 0.37734595 -0.29320776 -0.030581491 -0.12720577
-0.27878186 0.26501095 0.033281706 -0.13744523 -0.16076496 0.24132457 -0.305597 0.17062478
-0.35603034 -0.23800567 0.30973095 0.20639955 -0.2775379 -0.42485365 -0.056454323 0.11701035
0.18109916 0.053034555 -0.25763816 -0.07486788 0.14361785 0.23540117 -0.08955358 0.1792086
-0.03388485 0.057576265 -0.1241921 -0.10195818 0.19150881 -0.28586608 0.360532 -0.042852573
-0.22803703 0.35949767 0.2324667 -0.17055418 -0.29291862 -0.5325023 -0.18160121 0.072150566
0.22154385 0.49012902 0.123456866 -0.11505135 -0.03882814 0.4010594 -0.3112738 0.059188377
0.2356669 -0.3381105 0.012123687 0.058064006 -0.0078327125 0.11555972 0.13991806 -0.11721527
-0.14314605 0.5451765 -0.22664143 0.347804 0.15575908 -0.030747622 -0.19126783 0.2572892
-0.30250275 0.12125126 0.524484 -0.24797268 -0.263475 0.18564285 0.036480196 0.20447934
0.12719749 -0.0792684 -0.32401574 -0.013395981 -0.001933052 -0.0914632 -0.09921249 0.4674502
0.14664963 -0.19466493 0.22919609 0.20054954 0.07028458 0.33189753 0.15659426 0.19237335
-0.2867708 0.083501704 -0.08210333 -0.21923934 0.032037158 -0.03232572 0.13793992 0.15006377
-0.07878088 -0.303782 -0.23341444 0.5270888 -0.25441787 -0.0019048577 0.21189193 -0.13132776
0.21719177 0.19579823 -0.092393816 0.118694976 -0.10039899 -0.13221581 0.04250057 -0.2029287
-0.26979145 0.23168007 0.2124851 -0.41376826 -0.43111202 0.18929577 0.15350364 -0.39910457
-0.42190006 -0.23838285 0.34806353 0.25420377 0.16926526 -0.14674291 -0.1921152 0.15507972
0.056930322 0.026989212 0.22510865 -0.07387305 0.19510908 -0.24528249 -0.2013616 0.10713354
-0.34585297 -0.24500692 -0.3598689 -0.07398266 -0.091874436 0.05434887 -0.27568603 -0.37768146
-0.1842871 0.38687575 0.36865148 0.2695737 -0.14914604 0.25659642 0.08842587 -0.2478781
-0.33192825 -0.00066597364 0.40779406 0.28389695 0.5492183 -0.19116768 -0.00019227255 -0.18471941
-0.0058780066 0.36203825 0.20718953 0.36784405 0.17888522 -0.26895574 0.07801655 0.21233886
00000000: 9ca6 e9be 9ac6 053e a8ae fbbd 1610 09be
00000010: dc7d be3e d0a2 cabe 8316 16be 35c4 78bc
00000020: b9c6 0dbf 5b64 af3e df88 f3bd 944a a0be
00000030: 3575 813e a179 9c3e f0b8 8c3e 7c76 053e
00000040: 1080 573e dafd 3dbc d75e 4bbe 3e50 893d
00000050: 22fb c03c 8cb3 ff3d 058f 8e3e fb6a b63e
00000060: 0323 a03e 8f05 1c3e 477b 0dbe d21e ccbc
00000070: f253 073e 1319 983e 1a87 713e 3bbb d73d
00000080: 028a d03d 91e6 e23d 30f4 8a3d dcdd 9dbe
00000090: e470 3c3e 13e3 51be 84ce 33be a4bc 173d
000000a0: eae7 2a3e 5d74 4a3e 71c6 f2be 1d63 dabe
000000b0: 32fe c3be ca87 243e 2de1 08bf 8aba 0e3d
000000c0: 6a57 e73d ba37 103e 8e81 293e 61b1 8f3e
000000d0: 35b7 873e 662b 223e 430b b5bc a1bc 14bf
000000e0: af74 033f e81d 0d3e 153b 8fbe b71c e23d
000000f0: 5ddd ccbd 04db 013e dfec 50be 99ef 2f3e
00000100: 6ced b13e 7e0e 0f3e e4f4 79be e1c7 15be
00000110: cafc d0be cb32 f9bd a461 5c3e cb2b 503e
00000120: e052 9cbe 7a6d 733e 92b7 76bd a496 a73d
00000130: 43f7 b43b 542e e53e f97f 663e df04 2cbe
00000140: b982 f9be 7130 ba3d 8faa 3dbd 0e96 463c
00000150: 7d33 c13e 541f 96be 0986 fabc 3b42 02be
00000160: 7fbc 8ebe 84af 873e 6652 083d 71be 0cbe
00000170: 929f 24be ca1d 773e 3677 9cbe 43b8 2e3e
00000180: 9c49 b6be c2b7 73be 0e95 9e3e 675a 533e
00000190: 7319 8ebe 6b86 d9be a63c 67bd 1fa3 ef3d
000001a0: 0f72 393e c33a 593d 26e9 83be 5554 99bd
000001b0: 8f10 133e 010d 713e de67 b7bd 7682 373e
000001c0: d7ca 0abd 17d5 6b3d 6d58 febd 73cf d0bd
000001d0: e31a 443e 0a5d 92be a697 b83e 2e86 2fbd
000001e0: 8a82 69be 1410 b83e c00b 6e3e c1a5 2ebe
000001f0: 6ef9 95be 1252 08bf abf5 39be adc3 933d
00000200: 64dc 623e 31f2 fa3e f4d6 fc3d 0ba0 ebbd
00000210: 410a 1fbd a857 cd3e 485f 9fbe 836f 723d
00000220: aa52 713e d21c adbe 6ea2 463c 86d4 6d3d
00000230: c754 00bc 93aa ec3d ae46 0f3e 8f0e f0bd
00000240: e194 12be b090 0b3f b114 68be 5e13 b23e
00000250: 4f7f 1f3e 70e2 fbbc b7db 43be 69bb 833e
00000260: a4e1 9abe 9552 f83d 9544 063f 8dec 7dbe
00000270: 32e6 86be 2919 3e3e 426c 153d 0863 513e
00000280: 0f40 023e 7957 a2bd 64e5 a5be d17a 5bbc
00000290: 765e fdba 0f51 bbbd eb2f cbbd a255 ef3e
000002a0: 522b 163e 3e56 47be 61b2 6a3e dc5c 4d3e
000002b0: 5df1 8f3d 79ee a93e 3f5a 203e 85fd 443e
000002c0: 9fd3 92be f102 ab3d ca25 a8bd 4780 60be
000002d0: 6539 033d f967 04bd 1f40 0d3e 51aa 193e
000002e0: df57 a1bd 5089 9bbe 3204 6fbe 4bef 063f
000002f0: 0f43 82be 6bac f9ba 33fa 583e c97a 06be
00000300: 8567 5e3e 557f 483e f838 bdbd 5a16 f33d
00000310: fc9d cdbd 9563 07be 1415 2e3d 8bcc 4fbe
00000320: 1b22 8abe 8a3d 6d3e b295 593e 6fd9 d3be
00000330: b7ba dcbe c0d6 413e 0f30 1d3e 6f57 ccbe
00000340: 4903 d8be a21a 74be 6235 b23e ff26 823e
00000350: df53 2d3e c643 16be d9b9 44be 38cd 1e3e
00000360: c52f 693d 7b18 dd3c e282 663e c14a 97bd
00000370: adca 473e 552b 7bbe bc31 4ebe d468 db3d
00000380: a413 b1be 18e3 7abe bd40 b8be 3984 97bd
00000390: aa28 bcbd ec9c 5e3d b826 8dbe 775f c1be
000003a0: c2b5 3cbe 9414 c63e e3bf bc3e 9005 8a3e
000003b0: bdb9 18be 9b60 833e 9f18 b53d c2d3 7dbe
000003c0: 80f2 a9be bc94 2eba 62ca d03e f15a 913e
000003d0: 9299 0c3f 76c1 43be c59c 49b9 1627 3dbe
000003e0: 4b9c c0bb 145d b93e 7e29 543e 0e56 bc3e
000003f0: b02d 373e 91b4 89be 24c7 9f3d 5c6f 593e

linear1.bias f4 [256]
0.08926455 -0.02168945 -0.12386551 0.17631829 -0.2107181 -0.038956795 -0.28483528 0.094357885
0.014821643 -0.21988507 0.040051095 -0.0035601498 -0.25342864 0.04070317 0.032840252 -0.19466744
0.14176281 -0.13737038 0.20578933 0.18369311 0.1255107 0.110380955 -0.17737691 -0.2479523
0.25445175 0.028990556 -0.107842855 -0.3055056 -0.088403426 0.12180481 -0.17931134 -0.07255913
-0.107918106 -0.07328213 0.2011917 -0.219693 0.16931394 -0.13379364 0.08228423 0.123526506
0.03842126 -0.20366386 -0.093204975 -0.16616093 -0.20704396 -0.3049524 -0.22974442 -0.24956763
-0.053884033 -0.10108211 0.016662067 -0.1632302 -0.27083406 -0.1594049 0.06409742 -0.26222906
-0.16299196 0.070042044 0.23408495 -0.17858213 -0.19561471 -0.1384221 0.1872123 -0.0725232
-0.17742234 -0.0014230382 -0.394405 -0.16852753 -0.39648062 -0.30630276 -0.3234186 0.06948406
-0.06470016 0.12402701 0.058381043 -0.021655545 0.062352084 0.11816562 0.1531563 -0.22062811
-0.03296508 0.06557701 0.1391453 -0.17141862 0.17228822 0.031009948 -0.19371003 -0.049612395
0.05839342 -0.024409028 0.0389542 -0.075145036 -0.32572114 0.22984584 -0.002264186 -0.08707277
-0.3258337 0.0395293 -0.38494027 -0.05408816 0.18224159 -0.100559294 -0.07366824 0.007537351
-0.083526924 0.13105117 0.15409388 -0.28348124 -0.2530803 0.046606734 -0.22470511 -0.26364654
0.03701957 -0.08397035 0.027085457 -0.26220676 0.009810275 -0.18531686 -0.0748863 -0.025051054
0.30583656 0.192355 -0.08145502 0.17818508 0.32857364 -0.12800321 0.10997405 -0.07165224
-0.13079016 -0.049532637 0.06734943 -0.10650375 -0.19958183 -0.27095398 0.14152429 -0.20174068
0.06426351 -0.035951957 -0.28201234 -0.37335992 -0.20967448 -0.060018584 -0.17898148 -0.13873307
0.055220336 0.12202201 0.115054585 0.15061267 0.087100804 -0.013233421 0.1475866 -0.04690474
-0.0983337 0.023789277 0.09225719 -0.12558147 -0.20069654 0.12903462 -0.1583296 0.20697731
-0.046645567 0.041054945 -0.1252344 0.26408 0.43473655 0.067395285 0.16315374 -0.094088376
-0.24777095 -0.18221374 0.02462821 0.119441375 -0.29920027 0.4241041 -0.2212542 0.028275285
0.036209617 -0.06122692 -0.10218913 -0.29563978 0.07650288 0.3248641 -0.2558411 -0.05662095
7.171568e-05 -0.12961745 -0.024763118 -0.115237854 -0.20732944 -0.16042908 -0.07958275 -0.2875665
0.21797173 -0.16220857 0.013916121 -0.3032663 0.029641716 -0.062037345 -0.14347503 -0.029418917
-0.22352341 0.21529771 -0.046742924 -0.28768426 0.14825813 0.03861592 0.058270734 0.10677676
-0.099538215 0.13274138 0.077613145 0.22053464 -0.08856691 -0.043888833 0.018636646 0.10416206
0.106664814 0.28082 -0.1245207 0.35203493 0.3533423 -0.002579146 0.16072322 0.026211519
-0.051364046 0.30500603 -0.14416727 0.00088732876 -0.24309653 -0.16270845 0.2170036 -0.17153184
-0.2918217 -0.079021804 0.022751318 0.27665094 0.014135825 0.056411374 -0.27721596 0.12852044
0.08853562 -0.23415741 -0.071970366 -0.08405908 0.46586013 0.025147708 0.09729647 0.24091923
0.19195135 0.05593887 0.052136388 0.16796793 -0.2359819 0.3319141 0.03466334 -0.15176271
00000000: 55d0 b63d 13ae b1bc 33ad fdbd c88c 343e
00000010: 7cc6 57be 2991 1fbd eed5 91be b53e c13d
00000020: 7ad6 723c 8d29 61be 9e0c 243d 6751 69bb
00000030: 66c1 81be 5eb8 263d 8083 063d e756 47be
00000040: 452a 113e d2aa 0cbe 70ba 523e 0c1a 3c3e
00000050: e085 003e 690f e23d 4ba2 35be 35e7 7dbe
00000060: 8047 823e 9a7d ed3c b7dc dcbd 3b6b 9cbe
00000070: db0c b5bd cd74 f93d 649d 37be e299 94bd
00000080: 2b04 ddbd f114 96bd 3205 4e3e 34f7 60be
00000090: a260 2d3e 3301 09be a284 a83d 77fb fc3d
000000a0: 9c5f 1d3d 428d 50be 40e2 bebd 1726 2abe
000000b0: 5503 54be b922 9cbe 1f42 6bbe a88e 7fbe
000000c0: 81b5 5cbd 2304 cfbd e37e 883c d125 27be
000000d0: c3aa 8abe 0a3b 23be 8245 833d e342 86be
000000e0: 5de7 26be 3472 8f3d f7b3 6f3e 3cde 36be
000000f0: 394f 48be 86be 0dbe 95b4 3f3e 0b87 94bd
00000100: 34ae 35be 3d85 baba 74ef c9be 7b92 2cbe
00000110: 82ff cabe b7d3 9cbe 1f97 a5be a94d 8e3d
00000120: 8481 84bd df01 fe3d f620 6f3d f866 b1bc
00000130: e664 7f3d d100 f23d 01d5 1c3e 56ec 61be
00000140: 6406 07bd 3d4d 863d 1b7c 0e3e 5d88 2fbe
00000150: 536c 303e 9308 fe3c ec5b 46be 5e36 4bbd
00000160: f02d 6f3d 71f5 c7bc 708e 1f3d a4e5 99bd
00000170: ecc4 a6be b55c 6b3e bd62 14bb 3553 b2bd
00000180: add3 a6be 7ae9 213d e416 c5be 8c8b 5dbd
00000190: 8a9d 3a3e 08f2 cdbd 60df 96bd e2fb f63b
000001a0: 2a10 abbd 4732 063e c9ca 1d3e 7424 91be
000001b0: be93 81be b4e6 3e3d 1919 66be aefc 86be
000001c0: d5a1 173d a6f8 abbd 52e2 dd3c f73f 86be
000001d0: 47bb 203c b4c3 3dbe fd5d 99bd de37 cdbc
000001e0: 9c96 9c3e b6f8 443e e4d1 a6bd 2676 363e
000001f0: ce3a a83e 4613 03be 133a e13d 69be 92bd
00000200: dbed 05be bce2 4abd 7fee 893d a31e dabd
00000210: 2e5f 4cbe 7bba 8abe beeb 103e 1c95 4ebe
00000220: 969c 833d 5c42 13bd ec63 90be 0829 bfbe
00000230: e8b4 56be 0cd6 75bd ec46 37be 0b10 0ebe
00000240: b82e 623d ade6 f93d bda1 eb3d 353a 1a3e
00000250: e861 b23d fed0 58bc f120 173e 2f1f 40bd
00000260: 2e63 c9bd bbe1 c23c 56f1 bc3d 6e98 00be
00000270: 6583 4dbe a721 043e 2821 22be dcf1 533e
00000280: 6c0f 3fbd 3b29 283d 723d 00be 7e35 873e
00000290: ca95 de3e 8a06 8a3d c611 273e 68b1 c0bd
000002a0: abb7 7dbe 3d96 3abe 1ac1 c93c ae9d f43d
000002b0: c730 99be 2c24 d93e 7690 62be 92a1 e73c
000002c0: 8950 143d 14c9 7abd 8948 d1bd 195e 97be
000002d0: 8bad 9c3d 9654 a63e 9bfd 82be 5feb 67bd
000002e0: 1066 9638 70ba 04be 06dc cabc d301 ecbd
000002f0: 2b4e 54be 8547 24be 48fc a2bd eb3b 93be
00000300: fb33 5f3e 011a 26be 7100 643c b845 9bbe
00000310: 2fd3 f23c df1a 7ebd 1eeb 12be f1ff f0bc
00000320: 52e3 64be 0177 5c3e 8275 3fbd 5a4b 93be
00000330: fbd0 173e ba2b 1e3d 4bad 6e3d c6ad da3d
00000340: b1da cbbd 5bed 073e a4f3 9e3d d5d3 613e
00000350: 9162 b5bd c7c4 33bd e1ab 983c eb52 d53d
00000360: 1573 da3d a4c7 8f3e b504 ffbd ec3d b43e
00000370: 48e9 b43e e406 29bb a194 243e 8ab9 d63c
00000380: 1b63 52bd c029 9c3e 96a0 13be a09b 683a
00000390: 4cee 78be 0b9d 26be 3136 5e3e 0ba6 2fbe
000003a0: a769 95be 2fd6 a1bd f960 ba3c 31a5 8d3e
000003b0: f399 673c 9d0f 673d 40ef 8dbe dd9a 033e
000003c0: 2a52 b53d f6c6 6fbe 3365 93bd 2b27 acbd
000003d0: 3885 ee3e 9102 ce3c 5f43 c73d 88b3 763e
000003e0: e58e 443e 2820 653d f78c 553d c9ff 2b3e
000003f0: 3da5 71be a5f0 a93e 25fb 0d3d af67 1bbe

linear2.weight f4 [3, 256]
-0.41417572 0.029921267 -0.10740333 0.22022295 -0.068122275 0.16160786 -0.06702432 -0.41508028
-0.26165915 0.08314636 -0.064706855 -0.35276058 -0.00323977 0.057949424 0.10633293 -0.092569634
-0.10793298 -0.16015242 0.33337232 0.033511028 0.05651013 0.1740166 -0.24424519 0.0012679717
0.4201389 0.51097256 0.06264664 0.006301921 -0.10684598 -0.016632995 -0.2047226 -0.4592967
-0.6035575 -0.19869274 0.005053158 -0.14174472 0.3135544 -0.07900282 0.057666726 -0.22464916
0.18539663 0.2082503 -0.023053741 -0.081363216 -0.012567813 -0.107495174 0.1192052 -0.22971565
-0.14838071 -0.3870416 0.108335055 -0.025431924 -0.0053332 -0.42309093 -0.33149302 -0.14619179
-0.077439524 -0.06359997 -0.043240037 0.052116327 -0.029313313 -0.1714647 -0.59320533 0.040560603
0.015478823 0.13402162 -0.019043501 0.06680519 -0.25963724 0.06716604 -0.0067520253 0.04935826
0.12862377 -0.1525887 -0.25087094 0.41115275 -0.20334029 0.014490754 -0.023561494 -0.16995169
0.03190559 0.19924416 0.13405168 0.34703988 0.17814186 0.22417568 -0.36021072 0.059716977
-0.047179375 -0.10210812 0.040420488 -0.09285613 0.021243807 0.22315492 0.16331513 0.31497237
-0.006743554 -0.16574676 -0.021879427 0.25983858 0.2995732 0.011264348 -0.24727625 0.19014174
-0.40662685 0.18132634 0.18449125 -0.054517765 -0.017606705 -0.13279673 0.2844256 -0.27865648
0.25807425 -0.3897057 -0.70864534 0.16827701 0.0477493 -0.15910321 -0.09513112 0.14685097
0.3227505 0.12591574 -0.14725873 -0.0076575847 0.26498145 -0.09044946 -0.08191371 -0.116798244
-0.11509427 -0.20016056 -0.23530146 -0.34250453 -0.00836398 -0.012274072 0.16409709 0.34579965
-0.0015291949 0.20112963 -0.21682891 0.057124633 -0.35944358 -0.15687032 -0.13216881 -0.20006688
-0.16060016 0.16091263 0.060580157 -0.0493812 -0.2535453 0.3234334 -0.11343546 0.024053184
-0.34618193 -0.2920685 0.2777555 0.35508952 0.3342805 0.068640985 0.18674721 -0.47910178
0.13295582 0.24029331 -0.18062718 0.07333617 0.23451345 -0.2404681 0.26612526 0.32800832
-0.16718853 0.19911452 0.14969651 -0.011305916 -0.18919057 0.3115997 0.12934694 -0.047064893
0.13222544 0.2228998 -0.122593746 -0.114214115 0.21578138 0.2738513 -0.23085456 0.05838476
0.10691362 0.09338154 0.09798126 -0.3296668 0.2683728 0.029972076 0.3354302 0.031319
0.14432774 0.033346917 -0.350922 0.09705236 -0.4047565 0.2506645 -0.14905274 -0.43299052
0.035738952 0.11126602 0.016148811 -0.25226045 0.52931553 -0.034775328 0.027020156 0.0049953265
0.32720453 0.00086801744 -0.07522925 0.121183656 -0.26714605 0.18746005 -0.027577596 0.01097115
-0.11304225 0.11566996 -0.057459313 0.022175852 0.21610533 -0.19044665 0.14287105 0.014369854
-0.111793704 0.14794916 -0.13926773 -0.18013714 0.0075635016 0.07749436 0.17790864 0.03376481
-0.016202146 0.039424382 0.18150368 0.32917568 -0.051593486 0.07518717 -0.0105092 0.10093909
-0.30377203 -0.14793818 -0.41319758 0.051018108 0.23196621 0.1740975 -0.11706077 -0.08819597
-0.07509153 -0.08767318 -0.1175731 -0.024419103 0.14093916 0.129471 -0.13764006 0.07278737
00000000: d70e d4be 721d f53c 47f6 dbbd 2082 613e
00000010: b183 8bbd 887c 253e 0c44 89bd 6785 d4be
00000020: 30f8 85be a448 aa3d 0785 84bd 099d b4be
00000030: 5252 54bb 605c 6d3d 14c5 d93d 2695 bdbd
00000040: f70b ddbd fffe 23be c7af aa3e dc42 093d
00000050: 2b77 673d 6831 323e 691b 7abe 1232 a63a
00000060: 721c d73e 19cf 023f e24c 803d 5880 ce3b
00000070: 11d2 dabd eb41 88bc cda2 51be f028 ebbe
00000080: bf82 1abf 1c76 4bbe f694 a53b 8725 11be
00000090: 348a a03e 3bcc a1bd f233 6c3d 6e0a 66be
000000a0: 9dd8 3d3e 913f 553e 33db bcbc c2a1 a6bd
000000b0: 3ae9 4dbc 6e26 dcbd db21 f43d 943a 6bbe
000000c0: 1df1 17be 512a c6be c5de dd3d 9c56 d0bc
000000d0: 20c2 aebb 609f d8be 74b9 a9be 4db3 15be
000000e0: 9d98 9ebd b340 82bd 771c 31bd ee77 553d
000000f0: 7922 f0bc 7194 2fbe 4edc 17bf e022 263d
00000100: e49a 7d3c f73c 093e 1e01 9cbc 29d1 883d
00000110: 2cef 84be 598e 893d 1840 ddbb e32b 4a3d
00000120: f3b5 033e 3640 1cbe 2872 80be 9d82 d23e
00000130: 7038 50be a16a 6d3c 0904 c1bc d107 2ebe
00000140: 70af 023d a906 4c3e d844 093e 36af b13e
00000150: d26a 363e 4f8e 653e 8a6d b8be ca99 743d
00000160: 293f 41bd 101e d1bd f48f 253d 5b2b bebd
00000170: 7e07 ae3c b982 643e 153c 273e 0f44 a13e
00000180: 08f9 dcbb 85b9 29be 7c3c b3bc 9009 853e
00000190: a961 993e 1a8e 383c fc35 7dbe 84b4 423e
000001a0: 6531 d0be 9dad 393e 46eb 3c3e 054e 5fbd
000001b0: f03b 90bc defb 07be 3ba0 913e 10ac 8ebe
000001c0: 4f22 843e 8187 c7be c869 35bf cf50 2c3e
000001d0: c594 433d f4eb 22be 1bd4 c2bd 1a60 163e
000001e0: 8e3f a53e 0ef0 003e feca 16be 7aec fabb
000001f0: a6ab 873e 913d b9bd 60c2 a7bd eb33 efbd
00000200: 8bb6 ebbd e4f6 4cbe def2 70be c15c afbe
00000210: 1309 09bc 3019 49bc 1109 283e a70c b13e
00000220: 446f c8ba edf4 4d3e 6608 5ebe 85fb 693d
00000230: fd08 b8be 9da2 20be 4357 07be 55de 4cbe
00000240: 5e74 24be 48c6 243e e622 783d f143 4abd
00000250: b1d0 81be 1099 a53e da50 e8bd 2f0b c53c
00000260: c23e b1be 018a 95be f835 8e3e 4bce b53e
00000270: d026 ab3e a593 8c3d a93a 3f3e d44c f5be
00000280: 9225 083e 730f 763e 55f6 38be 4631 963d
00000290: 4b24 703e 453d 76be 9241 883e b5f0 a73e
000002a0: 7833 2bbe ade4 4b3e 0b4a 193e 733c 39bc
000002b0: 2cbb 41be ff89 9f3e 8673 043e 1ec7 40bd
000002c0: 1b66 073e d83f 643e 6e12 fbbd 17e9 e9bd
000002d0: cbf5 5c3e 3d36 8c3e 2365 6cbe dc24 6f3d
000002e0: 87f5 da3d d23e bf3d 66aa c83d 16ca a8be
000002f0: 2968 893e 0088 f53c 82bd ab3e 5a48 003d
00000300: a7ca 133e c796 083d 0cac b3be 63c3 c63d
00000310: 3e3c cfbe 1957 803e 48a1 18be efb0 ddbe
00000320: 0263 123d 70df e33d 834a 843c 4828 81be
00000330: 3981 073f 9370 0ebd 6059 dd3c d6af a33b
00000340: 5a87 a73e aa8b 633a cb11 9abd 232f f83d
00000350: 5ec7 88be 87f5 3f3e 69ea e1bc 57c0 333c
00000360: b282 e7bd 5fe4 ec3d 755a 6bbd 22aa b53c
00000370: b74a 5d3e 7204 43be ca4c 123e 896f 6b3c
00000380: 19f4 e4bd fc7f 173e 339c 0ebe df75 38be
00000390: 40d7 f73b 5db5 9e3d af2d 363e f84c 0a3d
000003a0: 5dba 84bc 767b 213d 1adc 393e b789 a83e
000003b0: b153 53bd bbfb 993d c82e 2cbc 27b9 ce3d
000003c0: 0288 9bbe 1b7d 17be a28e d3be 5df8 503d
000003d0: 8d88 6d3e 9d46 323e 8fbd efbd 17a0 b4bd
000003e0: 97c9 99bd ff8d b3bd 2aca f0bd 920a c8bc
000003f0: 5b52 103e 0c94 043e 84f1 0cbe 8b11 953d

linear2.bias f4 [3]
0.13085285 0.01610951 -0.16939597
00000000: 4afe 053e 17f8 833c 2376 2dbe
