model.pth (torch, 17216 bytes, 4 tensors)

linear1.weight f4 [256, 11]
0	0xbe062347	-0.13099395
1	0xbe84a928	-0.25910306
2	0xbd9d5c0c	-0.07683572
3	0xbe96784f	-0.29388663
4	0x3e2e9a16	0.17050967
5	0x3d19b6c8	0.03752783
6	0xbe8a4c2e	-0.27011245
7	0x3e5f98e7	0.21835671
8	0xbe219a34	-0.1578148
9	0xbe375a62	-0.17905572
10	0x3df36f69	0.11886484
11	0xbe71513c	-0.23566145
12	0x3daf98f4	0.08574095
13	0x3d634890	0.055489123
14	0xbe552144	-0.20813471
15	0xbdc34d46	-0.09536223
16	0x3d9dc884	0.07704261
17	0xbe439924	-0.19101387
18	0x3e31d24e	0.17365381
19	0xbe9645ad	-0.29350033
20	0xbe23dd48	-0.16002381
21	0xbe2013e8	-0.15632594
22	0x3db5d32f	0.08878171
23	0xbe81cad3	-0.25350055
24	0x3d9f1384	0.07767394
25	0xbd7c6c6b	-0.061626833
26	0x3d630985	0.055429
27	0x3e7c43f0	0.24635291
28	0x3de4a32d	0.11163936
29	0x3e766095	0.2406028
30	0xbd864050	-0.065552354
31	0x3e0e7705	0.1391259
32	0x3dfb7113	0.122774266
33	0xbe65d1ae	-0.22443268
34	0x3e1ba7dd	0.15200754
35	0x3d67b460	0.056568503
36	0xbe192b18	-0.14957845
37	0xbe5ce59c	-0.21571964
38	0xbd40f385	-0.04710724
39	0x3e3fd5bc	0.18733877
40	0x3e9816a5	0.29704776
41	0xbe5cc82c	-0.21560735
42	0x3c6d2006	0.014472967
43	0x3e1ed13d	0.15509506
44	0xbe93de81	-0.28880695
45	0xbe869761	-0.26287368
46	0xbc276540	-0.010217011
47	0xbde8a6bd	-0.11359928
48	0x3daacbad	0.08339629
49	0x3c30417b	0.010757799
50	0x3d12ac56	0.035808884
51	0x3e548db1	0.20757176
52	0xbd9edc83	-0.07756903
53	0x3d7cc76c	0.06171362
54	0x3c66a273	0.014076817
55	0xbe8902ef	-0.2676005
56	0xbe999f2f	-0.3000426
57	0x3e5b43c0	0.21412563
58	0x3e2cfd14	0.16893417
59	0x3d97a59f	0.074046366
60	0x3dfe7ecb	0.124265276
61	0xbd85d3a4	-0.06534508
62	0xbe12c898	-0.14334333
63	0xbe4858eb	-0.1956517
64	0x3df101a6	0.117678925
65	0x3d48c8f9	0.049019787
66	0xbdd5b754	-0.10435358
67	0x3e6ba3c0	0.23011684
68	0x3db21518	0.086954296
69	0xbe4271ba	-0.18988696
70	0x3ca1a9d0	0.019734293
71	0xbe1ff9a3	-0.15622573
72	0xbd2e80c8	-0.042603284
73	0xbdb679cc	-0.0890995
74	0x3d7e5188	0.062089473
75	0x3c45bca0	0.0120688975
76	0x3ddd32a4	0.108006746
77	0xbe89cfd5	-0.26916376
78	0xbe8bbc43	-0.2729207
79	0xbd807546	-0.06272368
80	0xbc889198	-0.016670987
81	0xbe4cbb39	-0.19993295
82	0xbded75bc	-0.11594722
83	0x3d99f822	0.07518031
84	0x3e20bc9c	0.15696949
85	0x3dcf9157	0.10135143
86	0x3e8ba133	0.27271423
87	0xbe8547bf	-0.260313
88	0xbe515d88	-0.20445836
89	0x3daed9a2	0.08537604
90	0x3e8621aa	0.2619756
91	0xbd8ba548	-0.06818634
92	0xbce87320	-0.028375208
93	0xbc3334fc	-0.010937925
94	0x3dd2437f	0.1026678
95	0xbe52e4ca	-0.20595089
96	0x3e5fa94a	0.21841922
97	0x3e1f8089	0.15576376
98	0xbe5f0bce	-0.21781847
99	0xbcdf4aa0	-0.027257264
100	0xbe223234	-0.15839463
101	0xbe37c7ef	-0.17947362
102	0xbe8e42fb	-0.27785477
103	0x3e2ed57c	0.17073625
104	0xbcc2f7a5	-0.023799727
105	0x3e3c7a38	0.18405998
106	0xbe954673	-0.2915531
107	0xbe6c4180	-0.23071861
108	0xbe183602	-0.14864352
109	0x3e50eba8	0.20402396
110	0x3e319ca5	0.17344911
111	0xbc4a51bc	-0.012348589
112	0x3e5411f8	0.2070998
113	0xbd0cc65b	-0.034368854
114	0x3e88e16a	0.26734477
115	0x3e106e27	0.1410452
116	0x3e9fc0a0	0.3120165
117	0xbe9132a3	-0.28358945
118	0xbe44add2	-0.19206932
119	0x3e611bed	0.21983309
120	0xbe973996	-0.29536122
121	0xbe2724a2	-0.16322568
122	0x3da54ab4	0.08070889
123	0xbd851044	-0.06497243
124	0xbe2a1081	-0.16607858
125	0xbe8a240b	-0.26980624
126	0xbe8f7f96	-0.28027028
127	0xbe8d8ad5	-0.27644983
128	0xbe482e9a	-0.19549027
129	0xbe4ec9d8	-0.20194185
130	0x3e2fd7c6	0.17172155
131	0xbbb56f00	-0.005536914
132	0xbd502608	-0.05081752
133	0xbd524170	-0.051331937
134	0xbdaf4bf8	-0.08559412
135	0x3e827acb	0.2548431
136	0x3e60a66e	0.21938488
137	0x3ce6156d	0.028086388
138	0xbe922abd	-0.28548232
139	0x3e9c8377	0.3056905
140	0x3e7235bd	0.23653312
141	0x3e4a88e1	0.19778778
142	0xbdc3b022	-0.09555079
143	0x3e497c06	0.19676217
144	0xbe8b940a	-0.27261382
145	0xbaf10000	-0.0018386841
146	0xbe8fdfe5	-0.28100505
147	0x3d2995b5	0.041402537
148	0xbe624b4a	-0.22099033
149	0xbcb32713	-0.021869218
150	0xbe16f2e1	-0.14741088
151	0x3dc23655	0.09483019
152	0x3e4bbb69	0.1989571
153	0x3e857098	0.26062465
154	0xbe4bb005	-0.19891365
155	0x3e7149d2	0.23563316
156	0xbe06bc03	-0.13157658
157	0x3e3c7e10	0.18407464
158	0x3d6e3664	0.05815734
159	0x3cc8fd98	0.024534985
160	0xbe47902f	-0.19488595
161	0x3e1c67c0	0.15273952
162	0x3e7a3a0e	0.24436209
163	0x3d81baab	0.06334432
164	0x3e55d298	0.20881116
165	0x3dad96de	0.08476041
166	0x3e35e460	0.177629
167	0x3e7e22ac	0.24817914
168	0x3c5b75e6	0.013394808
169	0x3e151a29	0.1456076
170	0xbe85a50e	-0.2610249
171	0xbdf411e1	-0.11917473
172	0xbe64721c	-0.22309154
173	0x3e52a7b1	0.20571782
174	0x3e530a23	0.20609336
175	0xbe133261	-0.14374687
176	0xbc1bf360	-0.009518474
177	0xbd7c313c	-0.06157039
178	0xbcad5b80	-0.021161795
179	0x3e6ff339	0.23432626
180	0x3e005b65	0.12534864
181	0xbe950bc9	-0.29110554
182	0xbd958a2e	-0.07301746
183	0xbe201b9e	-0.15635535
184	0xbe4769e8	-0.19473994
185	0xbcd4427b	-0.025910607
186	0xbe651f3b	-0.22375195
187	0xbd561ceb	-0.052273672
188	0x3e071bf0	0.13194251
189	0xbd88cfac	-0.06680235
190	0x3e09e755	0.13467152
191	0x3e1bbc24	0.15208489
192	0xbc1a837a	-0.0094307605
193	0x3dda30a1	0.106538065
194	0xbd795958	-0.06087622
195	0xbe475787	-0.19466983
196	0x3e5f604f	0.21814083
197	0xbc0c2a25	-0.00855497
198	0x3e886e80	0.26646805
199	0x3db26b2d	0.087118484
200	0x3e257052	0.16156128
201	0x3e3a04e4	0.18165928
202	0xbe581243	-0.21100716
203	0xbe71d834	-0.23617631
204	0xbe23455d	-0.15944429
205	0xbe9b20c6	-0.30298442
206	0xbe8a037c	-0.26955783
207	0x3e945f3e	0.28978914
208	0xbd22a119	-0.039704416
209	0xbda23cde	-0.07921766
210	0x3b354500	0.0027659535
211	0x3e08b5ca	0.13350597
212	0xbc4eda40	-0.012625277
213	0xbdbabca0	-0.091180086
214	0xbcc22d30	-0.023703188
215	0xbdfb2014	-0.12261978
216	0x3c792100	0.015205622
217	0xbe448415	-0.1919101
218	0x3e189a10	0.1490252
219	0xbde7fce6	-0.113275334
220	0xbdaf5773	-0.085616015
221	0x3dab1cab	0.08355077
222	0xbe8d704a	-0.27624732
223	0x3e3ab408	0.18232739
224	0x3e3bab8c	0.18327159
225	0xbe847f7c	-0.25878513
226	0xbce889f5	-0.028386096
227	0x3ea21bc8	0.3166182
228	0x3dc3979a	0.095504
229	0x3e3db66f	0.18526624
230	0x3e7ae6fa	0.24502173
231	0xbe7167b7	-0.2357472
232	0x3e405bc4	0.18785006
233	0xbe06053d	-0.13087936
234	0xbe5f3f7e	-0.21801564
235	0x3e9c9c0e	0.3058781
236	0x3e1b56ae	0.15169784
237	0x3c864bc0	0.016393542
238	0xbe837a9a	-0.25679475
239	0x3d0cca5e	0.03437268
240	0xbd12fc34	-0.03588505
241	0x3e240b60	0.16019964
242	0xbe95f972	-0.29291874
243	0x3b326ee1	0.0027226734
244	0xbdc432e0	-0.09580016
245	0xbe4670ef	-0.19379018
246	0x3dfcc8ef	0.123430125
247	0xbe2b5a2c	-0.16733617
248	0x3e8855cb	0.26627955
249	0x3dbd630f	0.092474096
250	0xbe5b7b2b	-0.21433704
251	0x3b9c1495	0.0047631958
252	0x3e2133a6	0.15742359
253	0xbe052402	-0.13002017
254	0x3e5cf7bd	0.2157888
255	0xbdcb8888	-0.09938151

linear1.bias f4 [256]
0	0xbe94fbe4	-0.29098427
1	0xbe50a97e	-0.20377156
2	0xbd14fbbb	-0.03637288
3	0x3d8694fd	0.06571386
4	0x3d8c8d7a	0.06862922
5	0xbe1aa24e	-0.15100977
6	0xbe3e9778	-0.18612468
7	0xbe25a525	-0.16176279
8	0xbe289a57	-0.16465126
9	0xbe2743cb	-0.16334455
10	0x3dba2f2a	0.09091027
11	0xbd76871c	-0.060187444
12	0xbe19053d	-0.14943404
13	0xbe067907	-0.13132106
14	0x3e9e9251	0.30971006
15	0xbe5ea6f7	-0.2174338
16	0x3c01a5dc	0.007913079
17	0xbdce5639	-0.100750394
18	0x3e2576f6	0.16158661
19	0xbe5563bc	-0.20838827
20	0x3c2324fe	0.00995755
21	0xbe07062f	-0.13185953
22	0x3d9acb43	0.075583
23	0x3e1f194a	0.15536991
24	0x3dcff2dc	0.101537436
25	0x3d195837	0.037437644
26	0x3e24df7c	0.16100878
27	0x3de3b37f	0.111182205
28	0xbe10ad7f	-0.14128684
29	0x3e7f75e0	0.2494731
30	0x3ddaadc5	0.10677675
31	0x3e5857a3	0.21127181
32	0xbe941a42	-0.28926283
33	0x3dc96b3d	0.09834907
34	0x3dba856b	0.09107479
35	0xbe0c94e6	-0.13728675
36	0x3d2236af	0.03960293
37	0x3e54e4f8	0.2079047
38	0xbe77aeab	-0.24187724
39	0x3e84f86f	0.2597079
40	0x3dd878f1	0.10569943
41	0xbe436d84	-0.19084746
42	0x3e84cd0c	0.25937688
43	0x3e727116	0.23675951
44	0xbe861bf7	-0.2619321
45	0xbe9705d4	-0.29496634
46	0xbe8b9e4b	-0.27269205
47	0x3dd7d946	0.105394885
48	0xbe70713d	-0.23480697
49	0xbe31c693	-0.17360906
50	0xbe70aced	-0.23503466
51	0xbe947ae4	-0.29000008
52	0xbe3f83b1	-0.1870258
53	0xbca206ca	-0.019778628
54	0xbe60d6f7	-0.21957003
55	0x3de9038c	0.1137763
56	0xbe873ba3	-0.26412687
57	0x3e89d848	0.26922822
58	0xbe36d8b5	-0.17856105
59	0xbe290264	-0.16504818
60	0x3d0a3694	0.033743456
61	0x3e285ad2	0.16440895
62	0xbde4c4c1	-0.1117034
63	0xbe08a198	-0.13342893
64	0xbdef5370	-0.11685836
65	0xbe115d77	-0.1419581
66	0x3e7773e0	0.24165297
67	0x3e5033c7	0.20332251
68	0x3e84c18a	0.2592891
69	0x3e48c651	0.19606902
70	0x3e8602da	0.2617405
71	0xbdfb1081	-0.12259007
72	0xbe948030	-0.2900405
73	0xbe1681cd	-0.14697953
74	0xbdf3aafb	-0.11897846
75	0xbe5b3870	-0.21408248
76	0xbe735072	-0.23761156
77	0x3be2d0a4	0.0069218446
78	0xbd650499	-0.055912588
79	0xbe83ae8d	-0.2571911
80	0x3e24c14b	0.1608936
81	0x3e6fbcfb	0.23411934
82	0xbd845760	-0.06461978
83	0xbd8ed6d8	-0.06974572
84	0x3d1da12a	0.038483776
85	0xbe87e25f	-0.26539895
86	0xbd51e71a	-0.051245786
87	0x3d6d3368	0.057910353
88	0xbe6a3609	-0.22872175
89	0xbe9505a5	-0.2910587
90	0xbd7fe84d	-0.0624774
91	0xbe65b518	-0.22432363
92	0x3e9e19a6	0.30878943
93	0x3e870570	0.26371336
94	0xbdf2700c	-0.118377775
95	0x3e3541d2	0.1770089
96	0x3d638690	0.05554825
97	0xbe875dc0	-0.26438713
98	0xbe46aab9	-0.19401063
99	0xbd776def	-0.060407575
100	0x3b7d0d57	0.0038612687
101	0xbe3858a3	-0.18002562
102	0xbe0f13b0	-0.13972354
103	0xbe8f4d27	-0.2798855
104	0x3c03fe51	0.008056239
105	0xbc8b6fb2	-0.017021034
106	0x3ca8b9f3	0.02059648
107	0xbdc7dc16	-0.09758775
108	0x3e831311	0.25600484
109	0xbe8830e2	-0.26599795
110	0xbe60995a	-0.21933499
111	0xbd6122ce	-0.054964833
112	0xbe857f8f	-0.26073882
113	0x3e83e84c	0.25763166
114	0xbc803b58	-0.015653297
115	0xbab2737f	-0.0013614743
116	0xbdf29722	-0.118452325
117	0x3b94741f	0.0045304443
118	0xbd0e74a9	-0.034779225
119	0xbd6a3f58	-0.057189316
120	0xbe3a5d8a	-0.18199745
121	0xbe8591e6	-0.26087874
122	0x3e869e9e	0.2629289
123	0xbc81ce84	-0.015845545
124	0x3e2d80d7	0.1694368
125	0xbe493e30	-0.19652629
126	0xbde6771e	-0.112531886
127	0x3d291e8e	0.041288905
128	0x3d7b68fa	0.06137941
129	0x3e34d618	0.17659795
130	0x3e7d75bf	0.24751948
131	0xbb278539	-0.0025561585
132	0xbe63724e	-0.22211573
133	0x3dc8d891	0.09806932
134	0xbdc08718	-0.09400767
135	0xbe6bd207	-0.23029338
136	0x3d5434a1	0.051808003
137	0xbde84487	-0.113411956
138	0xbd966324	-0.07343128
139	0xbe3e5833	-0.18588333
140	0xbd65dd7a	-0.05611942
141	0xbd2184a2	-0.03943313
142	0x3db0f0e0	0.08639693
143	0xbe2a8220	-0.16651201
144	0x3e416ba8	0.18888724
145	0x3e8137f8	0.25238013
146	0x3e2429f3	0.16031627
147	0x3e099e88	0.13439381
148	0xbdb324a6	-0.087472245
149	0x3e4763ff	0.19471739
150	0x3cc4d7eb	0.024028739
151	0xbe78f0fb	-0.24310677
152	0x3e007767	0.12545548
153	0x3d177f54	0.036986664
154	0x3e2aa737	0.1666535
155	0x3c6a2f78	0.014293544
156	0xbe8447a5	-0.2583591
157	0xbe95dd85	-0.29270568
158	0xbda1a544	-0.0789285
159	0xbd8b565a	-0.0680358
160	0xbe06fc1d	-0.13182111
161	0xbd8abf25	-0.06774739
162	0xbddde95c	-0.108355254
163	0x3ced64e0	0.028978765
164	0xbdf167ae	-0.117873535
165	0xbe80fe6e	-0.25194114
166	0xbe35462f	-0.17702554
167	0xbdb0b3ba	-0.0862803
168	0xbdfc2670	-0.12312019
169	0x3e7e7afb	0.24851601
170	0xbe6805eb	-0.22658508
171	0xbe77081d	-0.24124189
172	0x3d9bcea8	0.07607776
173	0xbe83a4ec	-0.25711763
174	0xbd5880c3	-0.05285717
175	0xbe05efc2	-0.13079742
176	0xbdb078b0	-0.08616769
177	0xbbbcd166	-0.005762267
178	0x3e3a1fcc	0.18176192
179	0x3e9aba3c	0.3022021
180	0xbe5e1a82	-0.216898
181	0x3bff2fa8	0.0077876635
182	0x3e78484d	0.2424633
183	0xbdc0a87d	-0.094071366
184	0xbe79ea79	-0.2440585
185	0xbe050044	-0.12988383
186	0xbddb16de	-0.10697721
187	0xbe351248	-0.17682755
188	0x3de7d2b1	0.11319483
189	0x3e99d4fc	0.30045307
190	0xbe0fcb55	-0.14042409
191	0xbe97bae8	-0.29634786
192	0xbe3eecaf	-0.18644975
193	0xbda38c1e	-0.079857096
194	0xbd88ce47	-0.06679969
195	0xbc6f0d4b	-0.014590572
196	0xbde5710b	-0.11203202
197	0x3e7d6d22	0.24748662
198	0x3e52e3b8	0.2059468
199	0xbdcbf3fe	-0.09958647
200	0x3dcaed64	0.0990856
201	0xbe89cf92	-0.26916176
202	0x3e7961d4	0.24353725
203	0x3e698d8d	0.22807904
204	0xbe3b9460	-0.1831832
205	0xbcc4a9b8	-0.02400671
206	0x3e00f8f1	0.12594964
207	0xbd57ba61	-0.05266798
208	0x3e177be4	0.14793354
209	0xbc9fe0ac	-0.019516312
210	0xbdae3f0b	-0.08508118
211	0xbdb1d246	-0.086826846
212	0xbe3c149d	-0.18367238
213	0xbe314803	-0.17312627
214	0xbceeeb7a	-0.029165018
215	0x3e13e33d	0.14442153
216	0x3dfc6028	0.12323028
217	0x3e2e89bc	0.17044729
218	0xbdf702ef	-0.120611064
219	0x3dcf269f	0.10114788
220	0xbd9d9c64	-0.07695845
221	0xbe2f6143	-0.17126946
222	0x3e335e14	0.17516357
223	0x3db8b530	0.09018934
224	0x3e21f8f7	0.15817629
225	0x3d2962ed	0.04135411
226	0x3c9bc73c	0.0190159
227	0xbe6ba224	-0.2301107
228	0x3e59d901	0.21274187
229	0x3e2b9a5b	0.167581
230	0xbdc7c14d	-0.09753666
231	0xbcd65485	-0.026163349
232	0xbe2cd277	-0.16877161
233	0xbe6eb53b	-0.23311321
234	0x3c7e6344	0.015526596
235	0x3e96b5ff	0.29435727
236	0x3dce4749	0.1007219
237	0xbd1c13b8	-0.038104743
238	0x3e4f0e41	0.20220281
239	0x3dd95ec6	0.1061378
240	0xbc9e8a58	-0.019353077
241	0x3e682f6a	0.22674337
242	0x3e705c02	0.23472598
243	0xbdefafa0	-0.1170342
244	0xbd450737	-0.048102584
245	0xbdc81775	-0.09770099
246	0xbe83a305	-0.25710312
247	0xbdbee361	-0.09320713
248	0x3e93f551	0.288981
249	0x3d43df21	0.047820214
250	0x3dec2dfd	0.11532209
251	0x3e87d0c3	0.2652646
252	0x3d854d76	0.06508915
253	0xbdba1f39	-0.090879865
254	0x3e88bda8	0.26707196
255	0x3e3e38ae	0.18576309

linear2.weight f4 [3, 256]
0	0xbc07fa89	-0.008299478
1	0x3d4c2cc8	0.049847394
2	0xbd06b048	-0.03288296
3	0x3cda5dcb	0.026656052
4	0x3d2d4d1f	0.042309877
5	0xbd4f81ad	-0.050660778
6	0xbd27a516	-0.040928923
7	0x3d58e74d	0.05295496
8	0xbbd18fca	-0.006395315
9	0x3c196253	0.009361821
10	0xbc83d473	-0.016092515
11	0xbba4fcc0	-0.005035013
12	0x3c9c1e5f	0.01905745
13	0xbd3dde9b	-0.04635487
14	0xbcff0330	-0.03112945
15	0xbd5efecf	-0.054442223
16	0xbd305d0a	-0.04305748
17	0xbd97312c	-0.07382426
18	0xbd4125d9	-0.047155235
19	0xbd5a3984	-0.053277507
20	0x3d2dcbe5	0.042430777
21	0xbd53b6c1	-0.05168796
22	0x3ce31d62	0.027723972
23	0x3cd862ab	0.026414236
24	0xbd7513c9	-0.05983332
25	0x3bcd7250	0.0062697306
26	0xbd37aa34	-0.044840053
27	0xbd9157c8	-0.07096821
28	0xbd336a6d	-0.043802667
29	0xbd785b46	-0.06063392
30	0xbd986310	-0.0744077
31	0xbb95d972	-0.0045730406
32	0xbd70dc0f	-0.058803614
33	0xbd289c8d	-0.041164923
34	0x3cbaee61	0.022818746
35	0xbd25b698	-0.040457338
36	0xbbf3f6a8	-0.007445175
37	0xbd36955c	-0.044576034
38	0x3c875f39	0.016524898
39	0x3d18b810	0.03728491
40	0xbcab712b	-0.020927986
41	0x3c1be10e	0.009514106
42	0xbd9be8c0	-0.07612753
43	0x3cde7d7d	0.027159447
44	0xbcc9f039	-0.02465068
45	0x3cc28b81	0.023748161
46	0xbd02e070	-0.03195232
47	0xbbf82c4d	-0.0075736404
48	0x3cd9ef84	0.026603468
49	0x3d904a5c	0.07045433
50	0x3d6ef3ff	0.05833816
51	0x3cdfcba3	0.027318781
52	0xbc8504e8	-0.016237691
53	0x3bba2162	0.005680249
54	0x3ce350b3	0.027748441
55	0x3d3d5138	0.046220034
56	0xbc25b116	-0.010113021
57	0x3c8a3ed0	0.016875654
58	0x3cd6d70f	0.026225595
59	0x3d125e46	0.035734437
60	0xbd89d322	-0.067297235
61	0xbd1f4559	-0.038884494
62	0xbd044e6d	-0.032301355
63	0x3b86e273	0.0041163503
64	0x3c8ca780	0.017169714
65	0xbc3e9f50	-0.011634663
66	0xbc06ed13	-0.008235234
67	0xbd0fbd51	-0.035092656
68	0xbd320edf	-0.043471213
69	0x3d0715b2	0.032979675
70	0x3d035f5a	0.032073356
71	0x3d8a71e9	0.06760008
72	0xbc675fb9	-0.014121943
73	0xbd21ef97	-0.03953513
74	0xbca0ac7e	-0.0196135
75	0x3c54b3fd	0.012982366
76	0xbd3057f1	-0.043052617
77	0xbd33703d	-0.04380821
78	0x3d1e529e	0.03865301
79	0xbc8ea700	-0.017413616
80	0x3b8e6e03	0.0043466105
81	0xbd1abaf4	-0.03777595
82	0x3d3a003e	0.045410387
83	0xbd44bf48	-0.048033983
84	0x3c7765c8	0.01509995
85	0xbc3b3c5c	-0.011427965
86	0xbd0cab2b	-0.034342926
87	0x3d5c82d9	0.053835724
88	0xbbe78acf	-0.007066108
89	0xbcc4584b	-0.023967883
90	0x3d437876	0.047722302
91	0xbd918f7e	-0.07107447
92	0x3d8387cd	0.06422386
93	0xbd524800	-0.051338196
94	0xbd01fb63	-0.03173388
95	0xbc5d12a2	-0.013493212
96	0xbd4eaccb	-0.050457757
97	0x3c8c7cbe	0.017149325
98	0x3a9a722e	0.0011783296
99	0x3d09367b	0.033499222
100	0x3d22350c	0.03960137
101	0x3ca6fa49	0.020383017
102	0x3d7ab5a0	0.061208367
103	0xbd20599b	-0.039147954
104	0x3a3d189c	0.0007213445
105	0x3d2e9926	0.042626522
106	0xbc56c281	-0.013107897
107	0xbcce9f7b	-0.02522253
108	0x3d0e62b9	0.034762118
109	0xbcfde215	-0.030991593
110	0x3d76458d	0.060124923
111	0x3cfb0252	0.030640755
112	0xbbca748c	-0.0061784443
113	0xbb5c1faa	-0.003358821
114	0x3d28b9a6	0.041192673
115	0x3ce7f323	0.028314179
116	0xbd566ca3	-0.052349698
117	0xbd0610d3	-0.03273089
118	0xbd5d449c	-0.05402051
119	0x3c846c0f	0.016164808
120	0xbd87bbef	-0.06627642
121	0xbd36eae0	-0.044657588
122	0xba86626f	-0.0010252724
123	0xbd009b81	-0.0313983
124	0xbbcd4fbc	-0.0062656086
125	0xbd2f202e	-0.0427553
126	0xbcad6208	-0.021164909
127	0xbd7a249d	-0.061070073
128	0xbcda8be9	-0.026678042
129	0x3c41edeb	0.011836509
130	0xbd302b33	-0.043009948
131	0xbd657bc9	-0.056026254
132	0xbd52e69c	-0.051489457
133	0x3c640a00	0.0139184
134	0x3d417efc	0.047240242
135	0xbd0960c0	-0.033539534
136	0x3c6ceaed	0.014460308
137	0x3d28ad20	0.04118073
138	0xbca1dc24	-0.019758292
139	0xbca00167	-0.019531919
140	0xbd5ef094	-0.054428652
141	0x3d002876	0.031288587
142	0x3ca7d4b3	0.020487165
143	0xbca6ceb1	-0.02036223
144	0x3ce06913	0.027393853
145	0x3ba0d15b	0.0049077696
146	0x3cfa001c	0.03051763
147	0x3ab754da	0.001398708
148	0xbc62d5c8	-0.013844915
149	0x3cd9ba99	0.026578235
150	0xbd94baf7	-0.07262223
151	0x3c49b151	0.012310342
152	0x3c347127	0.011013306
153	0xbd4b9646	-0.04970386
154	0x3c895e1d	0.01676851
155	0x3b1f733c	0.002433016
156	0x3b7c401f	0.0038490368
157	0x3c94d82b	0.018169483
158	0xbd174a62	-0.03693617
159	0xbc440249	-0.011963435
160	0xbc0649e9	-0.0081963325
161	0x3d2189b7	0.039437976
162	0xbcee46f5	-0.02908657
163	0x3c418720	0.0118120015
164	0x3cb391d7	0.021920128
165	0xbd85c2c2	-0.06531288
166	0xbda90db1	-0.082545646
167	0xbd90b2f1	-0.0706538
168	0xbd969fe4	-0.073547155
169	0xbd60ffef	-0.054931577
170	0x3d38243b	0.044956427
171	0xbc06ea0b	-0.008234511
172	0x3d4eb400	0.05046463
173	0xbd566df6	-0.05235096
174	0xbd71be72	-0.059019513
175	0xbc177f41	-0.009246648
176	0x3c81fef0	0.015868634
177	0x3c964529	0.018343525
178	0x3d3197c1	0.043357614
179	0xbcfb9be6	-0.030713987
180	0xbc0bd089	-0.008533605
181	0xbd477709	-0.048697505
182	0xbd2c10a3	-0.042008054
183	0xbcdd4343	-0.027009612
184	0xbc65d787	-0.0140284365
185	0x3d0119df	0.031518813
186	0xbd014239	-0.031557295
187	0x3d76f1c8	0.060289174
188	0xbcfa268d	-0.03053596
189	0xbd436f91	-0.04771382
190	0x3ca4e2b4	0.020127632
191	0x3b0001c0	0.0019532293
192	0x3ce397ed	0.027782405
193	0xbb311bbd	-0.002702459
194	0xbc9ebd51	-0.019377382
195	0xbd19df5f	-0.03756654
196	0xbc7ef82a	-0.015562097
197	0x3d9bd18b	0.076083265
198	0xbd72cb5e	-0.059275977
199	0x3bb34a0c	0.0054714736
200	0xbd562883	-0.05228473
201	0xbc67ede8	-0.014155842
202	0xbbc31be2	-0.0059542516
203	0x3d036f77	0.032088723
204	0xbd469418	-0.048481077
205	0x3d5227f7	0.051307645
206	0x3cdcd605	0.026957521
207	0x3d50e7f1	0.051002447
208	0x3d13ae9e	0.0360552
209	0xbcf774d5	-0.030207077
210	0xbd0408bf	-0.032234903
211	0x3c9d1cca	0.019178767
212	0x3d303494	0.043018892
213	0xbc39104f	-0.011295392
214	0xbca6592a	-0.020306189
215	0xbaa07823	-0.0012242835
216	0x3d281800	0.041038513
217	0xbc9dfa27	-0.019284321
218	0xbb86eea7	-0.004117805
219	0x3d44d1aa	0.048051514
220	0xbcb8d4c4	-0.022562392
221	0x3d26c5b4	0.04071589
222	0x3d6cf095	0.057846624
223	0xbc09ebf0	-0.008418068
224	0x3d0ce18a	0.03439478
225	0xbc89a7cf	-0.01680365
226	0xbd00d985	-0.031457443
227	0xbcac1c34	-0.021009542
228	0xbd82fdca	-0.06396063
229	0xbd1088cf	-0.03528672
230	0x3c01c096	0.007919451
231	0x3d1293a3	0.03578533
232	0xbda28e76	-0.079373285
233	0xbd36dff1	-0.04464716
234	0x3d0089ae	0.0313813
235	0xbd4ce127	-0.05001941
236	0xbc3b7dd9	-0.011443579
237	0x3c3f3f76	0.011672845
238	0x3cb911a3	0.022591418
239	0xbd906b8e	-0.070517644
240	0xbd8a3f40	-0.06750345
241	0x3c908c30	0.017644972
242	0xbc3f081e	-0.01165965
243	0x3c01776a	0.007902006
244	0x3c06b321	0.008221419
245	0xbcacebff	-0.021108625
246	0x3d6ab5da	0.057302333
247	0xbd43c47b	-0.0477948
248	0x3d6938a9	0.0569388
249	0xbd07bf04	-0.03314115
250	0xbcef488a	-0.029209394
251	0xbd3788ae	-0.044808082
252	0xbc02ab32	-0.007975386
253	0xbd4e86a5	-0.050421376
254	0xbd2c42bb	-0.042055827
255	0xbc37256f	-0.011178358

linear2.bias f4 [3]
0	0x3d1c55ab	0.038167637
1	0x3ad57453	0.0016285278
2	0xbc1fc291	-0.009750978
